----------------------------------------------------------------
        Layer (type)               Output Shape         Param #
================================================================
            Conv2d-1           [-1, 64, 28, 28]             640
         LeakyReLU-2           [-1, 64, 28, 28]               0
            Conv2d-3           [-1, 64, 28, 28]          36,928
         LeakyReLU-4           [-1, 64, 28, 28]               0
         MaxPool2d-5           [-1, 64, 14, 14]               0
            Conv2d-6          [-1, 128, 14, 14]          73,856
         LeakyReLU-7          [-1, 128, 14, 14]               0
            Conv2d-8          [-1, 128, 14, 14]         147,584
         LeakyReLU-9          [-1, 128, 14, 14]               0
        MaxPool2d-10            [-1, 128, 7, 7]               0
           Conv2d-11            [-1, 256, 7, 7]         295,168
        LeakyReLU-12            [-1, 256, 7, 7]               0
           Conv2d-13            [-1, 256, 7, 7]         590,080
        LeakyReLU-14            [-1, 256, 7, 7]               0
           Conv2d-15            [-1, 256, 7, 7]         590,080
        LeakyReLU-16            [-1, 256, 7, 7]               0
        MaxPool2d-17            [-1, 256, 3, 3]               0
          Flatten-18                 [-1, 2304]               0
           Linear-19                  [-1, 512]       1,180,160
        LeakyReLU-20                  [-1, 512]               0
          Dropout-21                  [-1, 512]               0
           Linear-22                  [-1, 256]         131,328
        LeakyReLU-23                  [-1, 256]               0
          Dropout-24                  [-1, 256]               0
           Linear-25                   [-1, 10]           2,570
================================================================
Total params: 3,048,394
Trainable params: 3,048,394
Non-trainable params: 0
----------------------------------------------------------------
Input size (MB): 0.00
Forward/backward pass size (MB): 3.07
Params size (MB): 11.63
Estimated Total Size (MB): 14.70
----------------------------------------------------------------
epoch:1 train loss:1.1916 train acc:0.5495 val loss:0.6841 val acc:0.7407 time_cost:0m44s lr:1e-05
…
